artifacts/lr_weights.npy (npy, 8128 bytes, 1 tensors)

array f8 [4, 250]
0	0x3fd002068f5315a3	0.2501236343053625
1	0x3fd13bd93d7d413c	0.2692778683167665
2	0x3fd1fb255e00305f	0.28095373325118617
3	0x3fd2c8684318e484	0.29348188927139796
4	0xbfa51584619c1217	-0.041179787554970364
5	0x3fd069bbf2dd28e5	0.2564535018651795
6	0x3fd2c8684318e484	0.29348188927139796
7	0xbfac6c3c2a6cca1f	-0.05551326768763353
8	0xbfa4278b66563206	-0.0393642008230906
9	0xbfa5e33b081238f4	-0.04274925683522382
10	0xbfb6e7571544660f	-0.0894674708291847
11	0x3f9f8e9e3f08d661	0.03081748256427941
12	0x3fb300bbc4b9ff75	0.07422994187254324
13	0xbfafcd5ee531b250	-0.06211372897891876
14	0x3fd13bd93d7d413c	0.2692778683167665
15	0x3fd13bd93d7d413c	0.2692778683167665
16	0xbfaa79e36708effa	-0.05171118386030567
17	0xbfa516d000d0b76e	-0.041189670657657426
18	0xbfa4c6de6a703bda	-0.0405797486238197
19	0xbfa8c6120b35bd78	-0.04838615786399719
20	0xbfab65a137833017	-0.0535097484840607
21	0xbfd0e6620a40cbca	-0.26406146050720436
22	0xbfcc72dc585ab6eb	-0.2222552710931532
23	0xbfb534c86ff3e2f5	-0.08283665402622005
24	0xbfb11dab23c80cd6	-0.06685895560808616
25	0xbfb0695fe0a9fd3f	-0.06410788760148466
26	0xbfaac25c40bd37cd	-0.052264101889349136
27	0x3faf840c80383e8b	0.061554327632731796
28	0x3fb300bbc4b9ff75	0.07422994187254324
29	0xbfa590673362f1ed	-0.04211733343388233
30	0xbfb7d2488f0a8e64	-0.09305242054193169
31	0xbfa2d2362abb1f55	-0.036760037151508364
32	0x3fb300bbc4b9ff75	0.07422994187254324
33	0x3fcb8fa26ec764dd	0.2153208771622194
34	0x3fe58f9024900e25	0.6737747873416465
35	0x3fd13bd93d7d413c	0.2692778683167665
36	0x3fe0c8505251e6cb	0.5244523628054706
37	0x3fe08273ed7f309d	0.515924419270522
38	0x3fd2c8684318e484	0.29348188927139796
39	0x3fddfe53e7aa23ef	0.4686479341840472
40	0x3fe3b3e27abef09a	0.6157085797672324
41	0xbfb138c91d3fcb03	-0.06727272953120793
42	0xbfa9fdb281316bd9	-0.05076368166984197
43	0xbfb24c1980f92382	-0.0714736881137821
44	0xbfa5db7a2d234ad2	-0.042690103540413596
45	0xbfa507b6223c5342	-0.04107445876994699
46	0xbfa599e4cd6210b9	-0.042189741202521565
47	0xbfc57ba05f0250bd	-0.16783527983773708
48	0xbfaabdd7f803c816	-0.052229641938439084
49	0xbfa7d8079dcb9fae	-0.0465700512048096
50	0xbfb414e9304aa1c6	-0.0784440749072309
51	0xbfad137f6199a01b	-0.056789379753183954
52	0xbfce74a5a1c61536	-0.23793478392705375
53	0xbfcc42b367f8b9ba	-0.22078554703462122
54	0xbfa5e656d6b45f9d	-0.04277297373681608
55	0xbfa2a1d38201e106	-0.03639088594440136
56	0xbfb627c070f9f107	-0.08654406316958695
57	0xbfa3cbc818d54570	-0.038664105445273544
58	0xbfb2b16044098848	-0.07301904355111433
59	0xbfa2dec298e43bbb	-0.03685577503539813
60	0xbfae71c12268380e	-0.059461627435766315
61	0xbfa5b5b571062c0b	-0.04240195278824651
62	0xbfad1680788a0f2a	-0.056812300409573815
63	0xbfa6b87bc52d7d7e	-0.044376247233908636
64	0xbfa75b0f04141954	-0.04561659741198079
65	0xbfa76451c2516d15	-0.04568725106283914
66	0xbfac0dd3fb94496f	-0.054792999706608884
67	0xbfa6947cfdd11d0c	-0.04410162542677129
68	0xbfa63973ca63531d	-0.04340707631641847
69	0xbfa4aca780383a9d	-0.04037974777394491
70	0xbfacfdc02d7af6eb	-0.05662346415691196
71	0xbfce51daac8b06a8	-0.2368729917998753
72	0xbfcb1c10f042903d	-0.21179401141591994
73	0xbfbadd5cd6624296	-0.10494022592525662
74	0xbfa2d10826f4a91c	-0.03675103641065133
75	0xbfa7722016b12140	-0.04579258229256533
76	0xbfa94cb7072bdebd	-0.049413413644229
77	0xbfa37fa5fc59b0c7	-0.038083254866110354
78	0xbfa5fad94667d4c0	-0.042929448933060055
79	0xbfa74b9f6789cd7f	-0.04549883021254696
80	0xbfba2838a24f0e7d	-0.10217622721307325
81	0xbfa724bbdfa73fcd	-0.04520213227408441
82	0xbfa9af42d11526b6	-0.05016526033666706
83	0xbfb4fce579ecc982	-0.0819838926952681
84	0xbfa7fa57e1bdad25	-0.046831842714562456
85	0xbfb950b4fc39db62	-0.09888774068700237
86	0xbfa2ce75a99ee119	-0.036731411891596184
87	0xbfb601937269e64e	-0.08596154731085301
88	0xbfb68ef04e109d8d	-0.08811857133752295
89	0xbfb797659fb88e9f	-0.09215388440548587
90	0xbfa666af68bf0760	-0.04375217584266866
91	0xbfa2d5ca7fb4a2cb	-0.03678734597116814
92	0xbfb523aca62df992	-0.08257559830778963
93	0xbfa29e114f4e500b	-0.03636221020784099
94	0xbfb31cfd7c6c29b3	-0.07466110503825156
95	0xbfa2e7b4dbe53a03	-0.03692403015394421
96	0xbfa2e7b4dbe53a03	-0.03692403015394421
97	0xbfaea9d3c78d992d	-0.05988942919684557
98	0xbfab2ae95bf718c5	-0.053061764217589714
99	0xbfb40cccab1cf5f7	-0.07832030465666394
100	0xbfa534e7edab6013	-0.04141926552046029
101	0xbfb14db6202a82ec	-0.06759203229240612
102	0xbfbabc047862ef9a	-0.10443141879198806
103	0xbfa89298f60e4100	-0.047993450199216525
104	0xbfa89298f60e4100	-0.047993450199216525
105	0xbfa687fe09413aab	-0.044006289129005914
106	0xbfb2f22479917887	-0.07400730102514973
107	0xbfa2daac3a89e709	-0.03682459082206264
108	0xbfa6a04a8159cf78	-0.04419167355527426
109	0xbfaf5c4f97d48bc7	-0.06125115135571196
110	0xbfa7fb9cb2c738cf	-0.04684152300215915
111	0xbfa7fb9cb2c738cf	-0.04684152300215915
112	0xbfa6b8d196e8e8b8	-0.04437880484734208
113	0xbfa6b8d196e8e8b8	-0.04437880484734208
114	0xbfa754415292d855	-0.045564690904413986
115	0xbfb78d061114d2d4	-0.091995600862741
116	0xbfa2dee4d29b8d37	-0.036856795033396166
117	0xbfa7ff12acc34592	-0.0468679271595064
118	0xbfb5d8f0e116fd99	-0.08534150596005076
119	0xbfb137e66171fa03	-0.0672592151549694
120	0xbfaa4feac6aad3c2	-0.0513909690393244
121	0xbfa603a35ffe1a5c	-0.04299650713715117
122	0xbfaeaa72778978e0	-0.0598941584510031
123	0xbfb517111e9bf71f	-0.08238322255416762
124	0xbfa72cb3c7d73e57	-0.04526292623961286
125	0xbfb8b48c00177baa	-0.09650492670287628
126	0xbfa7f984a1853c25	-0.046825546948291476
127	0xbfbb9724fc7abd21	-0.10777503170060189
128	0xbfa2da7f7c3f01cb	-0.03682325736690791
129	0xbfbdcd76c40d2307	-0.11641638075265003
130	0x3ff9baa71345d04e	1.6080694916572784
131	0x3feeaebacaf63055	0.9588293041320052
132	0x3ff0459442fb2637	1.0169870964476908
133	0xbfe9c3f3898fcfe0	-0.8051698385956989
134	0xbfdc38e5b63d1f36	-0.4409727363276831
135	0x3ffe7efbaf5ef411	1.9060017443109738
136	0x3ff6381ab360c37f	1.3886973387672865
137	0x3feeaebacaf63055	0.9588293041320052
138	0x3ff6381ab360c37f	1.3886973387672865
139	0x3feeaebacaf63055	0.9588293041320052
140	0x3feeaebacaf63055	0.9588293041320052
141	0xbfdc38e5b63d1f36	-0.4409727363276831
142	0xbfdc38e5b63d1f36	-0.4409727363276831
143	0x3ff0459442fb2637	1.0169870964476908
144	0x3ff0459442fb2637	1.0169870964476908
145	0xbfe07e10da3466c5	-0.5153888952074445
146	0xbfcbd6500b2dbafe	-0.2174778036673714
147	0xbfc51a2c0fdbfec0	-0.16486120962507833
148	0xbfd1db18850ddbdc	-0.278997545180969
149	0x3ff0459442fb2637	1.0169870964476908
150	0x3ff0459442fb2637	1.0169870964476908
151	0xbfee25ba8a14d5f5	-0.9421055504705566
152	0xbfe43f1106ff546e	-0.6326985489528292
153	0x3ff6381ab360c37f	1.3886973387672865
154	0x3ff6381ab360c37f	1.3886973387672865
155	0x3ff6381ab360c37f	1.3886973387672865
156	0x3ff6381ab360c37f	1.3886973387672865
157	0xbfe1919795ced807	-0.549022476762503
158	0xbfe1919795ced807	-0.549022476762503
159	0xbfdc38e5b63d1f36	-0.4409727363276831
160	0xbfe8ad7ef02ec72d	-0.7711786929196244
161	0xbfc845cfabfce5d5	-0.18963046930166053
162	0xbfc6acc6fcae706a	-0.17714774454077836
163	0xbfca5a7baf71e315	-0.20588632647174934
164	0xbfe07e10da3466c5	-0.5153888952074445
165	0xbfdf54cd0f5a4c14	-0.48955084323205367
166	0xbfe07e10da3466c5	-0.5153888952074445
167	0xbfe07e10da3466c5	-0.5153888952074445
168	0xbff259facfcb52ed	-1.146967708297946
169	0xbfdf54cd0f5a4c14	-0.48955084323205367
170	0x3ff6381ab360c37f	1.3886973387672865
171	0x3fe08273ed7f309d	0.515924419270522
172	0x3fe3b3e27abef09a	0.6157085797672324
173	0x3fe58f9024900e25	0.6737747873416465
174	0xbfe0e4c0ddff1358	-0.527923997484872
175	0xbfe0e4c0ddff1358	-0.527923997484872
176	0xbfdf1f95cc9d2847	-0.4863028047735764
177	0xbfdf1f95cc9d2847	-0.4863028047735764
178	0xbff27180a263188e	-1.1527105658765637
179	0xbfdf1f95cc9d2847	-0.4863028047735764
180	0xbfe43f1106ff546e	-0.6326985489528292
181	0xbfe43f1106ff546e	-0.6326985489528292
182	0xbfeedf0aaa49a068	-0.9647267652444613
183	0xbfdc38e5b63d1f36	-0.4409727363276831
184	0xbfdf9d17ff536ed2	-0.49396324094935296
185	0x3feeaebacaf63055	0.9588293041320052
186	0x3feeaebacaf63055	0.9588293041320052
187	0xbfed290e2edd69f9	-0.9112616458253903
188	0xbfdf1f95cc9d2847	-0.4863028047735764
189	0xbfe43f1106ff546e	-0.6326985489528292
190	0x3ff0459442fb2637	1.0169870964476908
191	0x3ff0459442fb2637	1.0169870964476908
192	0xbfe07e10da3466c5	-0.5153888952074445
193	0xbfe07e10da3466c5	-0.5153888952074445
194	0x3feeaebacaf63055	0.9588293041320052
195	0x3feeaebacaf63055	0.9588293041320052
196	0xbff0ba6a1da1aba5	-1.045511356113573
197	0x3ff0459442fb2637	1.0169870964476908
198	0x3ff0459442fb2637	1.0169870964476908
199	0x3fd903e39ac86995	0.3908623706389787
200	0xbfe07e10da3466c5	-0.5153888952074445
201	0x3ff0459442fb2637	1.0169870964476908
202	0x3fcda26255bb76d1	0.23151807008883066
203	0x3fd03f2b9774b3a4	0.2538556078969185
204	0x3fbbf74bbdba37b1	0.10924218542115118
205	0xbfae837ef800599b	-0.059596984647373584
206	0xbfe1cb7199077389	-0.5560844410753002
207	0x3ff0459442fb2637	1.0169870964476908
208	0x3ff0459442fb2637	1.0169870964476908
209	0xbfe1919795ced807	-0.549022476762503
210	0x3ff0459442fb2637	1.0169870964476908
211	0x3ffeaebacaf63055	1.9176586082640104
212	0x3feeaebacaf63055	0.9588293041320052
213	0xbfe8ead95007eb57	-0.7786680758575625
214	0xbfdf54cd0f5a4c14	-0.48955084323205367
215	0xbfdf9d17ff536ed2	-0.49396324094935296
216	0xbfdf9d17ff536ed2	-0.49396324094935296
217	0xbfe0e4c0ddff1358	-0.527923997484872
218	0xbfe0e4c0ddff1358	-0.527923997484872
219	0xbfeb8be861ef94bb	-0.8608285820779636
220	0xbfe1cb7199077389	-0.5560844410753002
221	0xbfdf9d17ff536ed2	-0.49396324094935296
222	0xbfdf9d17ff536ed2	-0.49396324094935296
223	0xbfe1cb7199077389	-0.5560844410753002
224	0xbfe1cb7199077389	-0.5560844410753002
225	0xbfdf9d17ff536ed2	-0.49396324094935296
226	0x3ff6381ab360c37f	1.3886973387672865
227	0x3ff6381ab360c37f	1.3886973387672865
228	0xbfe0e4c0ddff1358	-0.527923997484872
229	0xbfe0e4c0ddff1358	-0.527923997484872
230	0x3ff9baa71345d04e	1.6080694916572784
231	0x3feeaebacaf63055	0.9588293041320052
232	0x3ff0459442fb2637	1.0169870964476908
233	0xbfdc38e5b63d1f36	-0.4409727363276831
234	0xbfdc38e5b63d1f36	-0.4409727363276831
235	0xbfe97dd6e9d92d04	-0.7966112677908375
236	0xbfa3cbc818d54570	-0.038664105445273544
237	0xbfdf54cd0f5a4c14	-0.48955084323205367
238	0xbfe1919795ced807	-0.549022476762503
239	0xbfe1919795ced807	-0.549022476762503
240	0xbfe1919795ced807	-0.549022476762503
241	0xbfe1919795ced807	-0.549022476762503
242	0xbfdf54cd0f5a4c14	-0.48955084323205367
243	0xbfcc72dc585ab6eb	-0.2222552710931532
244	0xbfcc42b367f8b9ba	-0.22078554703462122
245	0xbfcb1c10f042903d	-0.21179401141591994
246	0xbfe0e4c0ddff1358	-0.527923997484872
247	0xbfe0e4c0ddff1358	-0.527923997484872
248	0xbfe0e4c0ddff1358	-0.527923997484872
249	0xbfe0e4c0ddff1358	-0.527923997484872
250	0x3fda1afb7fc2fe8c	0.4078968761132067
251	0x3fdb5628696f7f51	0.4271336583751593
252	0x3fdc2e3b69ac53b6	0.4403217822994593
253	0x3fdd03d303860180	0.45335841507041863
254	0xbfa55139c731df48	-0.04163532787873564
255	0x3fda8cb48c49ad28	0.4148379678724319
