artifacts/lr_weights.npy (npy, 8064 bytes, 1 tensors)

array f8 [4, 248]
000000 99 47 ba 62 50 b8 d1 3f ab 31 82 9d 0b 7b d2 3f
       0.27687463418362196 0.2887600935144074
000010 c4 d8 c9 64 13 7d b4 bf 46 6f b3 76 7f f4 b3 bf
       -0.08003350458770614 -0.0779494919583473
000020 df 8b 63 d9 8a 1c a2 bf c2 28 7c 8f a6 32 ba bf
       -0.03537401107475779 -0.1023353672318619
000030 df 8b 63 d9 8a 1c a2 bf 77 0e 82 6e 5d 71 a2 bf
       -0.03537401107475779 -0.03602115606284156
000040 dc c2 97 ea b4 5d a8 bf 84 66 f4 60 5b c9 b6 bf
       -0.04758992541963433 -0.08900996319825977
000050 c7 c7 7e fd c2 d2 a7 bf bc 93 49 6c 06 a2 b5 bf
       -0.04652985901283518 -0.08450355666862114
000060 df 87 a8 e9 69 36 a4 bf 9f 76 ad 2e c7 0a b0 bf
       -0.039477643749947104 -0.06266446008290892
000070 24 d8 71 18 c0 c8 a6 bf 13 ae 06 38 8a 45 ba bf
       -0.044500353797886555 -0.10262359493088295
000080 93 39 57 9e 6a d2 a7 bf f0 61 c2 5f 8a 7f cb 3f
       -0.046527225331021736 0.21482972789523513
000090 f0 61 c2 5f 8a 7f cb 3f 6d 05 4c 7c 81 9a ab bf
       0.21482972789523513 -0.053913160727470856
0000a0 9b b2 9b dc fa a4 cf 3f ab 31 82 9d 0b 7b d2 3f
       0.24722228786358333 0.2887600935144074
0000b0 44 0f 2a 09 98 da ad bf 53 d4 dd 79 8a 15 cb bf
       -0.05830836402767983 -0.21159487677110408
0000c0 2c ed fe b0 df 36 c6 bf 45 99 b9 4a 37 e7 b9 bf
       -0.1735496153104149 -0.10118432592716882
0000d0 41 61 bf 4a 80 0e a3 bf 9c be c3 14 8a 28 b6 bf
       -0.03722000992246644 -0.08655608183812052
0000e0 46 34 78 67 dc d8 a5 bf f0 61 c2 5f 8a 7f cb 3f
       -0.04267014277511598 0.21482972789523513
0000f0 f0 61 c2 5f 8a 7f cb 3f 9d 50 43 c9 97 60 a9 bf
       0.21482972789523513 -0.0495650704557715
000100 c1 48 cc 05 b5 61 a6 bf f0 61 c2 5f 8a 7f cb 3f
       -0.04371419616485773 0.21482972789523513
000110 bd f1 da 0d 5f b5 da 3f ba 77 9d 03 77 46 e8 3f
       0.4173200259499728 0.7586016722304898
000120 ab 31 82 9d 0b 7b d2 3f fa 29 e8 ef 22 a8 e0 3f
       0.2887600935144074 0.5205244718247848
000130 9d b0 97 54 91 4a e2 3f a9 84 99 07 30 39 aa bf
       0.5716025020788212 -0.05121755688447511
000140 c4 86 69 44 60 dd d3 3f 8c c2 5c 74 15 5b d7 3f
       0.31038672142868173 0.3649343143797885
000150 86 e8 a8 c0 93 b2 b8 bf 81 df 07 2d b7 be b6 bf
       -0.09647487119301176 -0.08884758805640837
000160 36 70 7d e6 e4 c0 b0 bf 72 2d 28 53 d4 26 a8 bf
       -0.06544333102414232 -0.047171244765276024
000170 88 98 a1 bf c3 97 a9 bf 44 64 64 5d 5b f1 a3 bf
       -0.04998599733589609 -0.0389507819656463
000180 55 63 8c 6b 43 24 ac bf 46 40 3f d8 7b 7e bb bf
       -0.05496416747900549 -0.10739873914212791
000190 d6 41 38 ef d2 11 a3 bf 23 a6 a3 93 49 9c a3 bf
       -0.03724536104357738 -0.03830175330388055
0001a0 2e b5 de 90 93 d5 a3 bf 38 ce d5 63 ef 2d a5 bf
       -0.038738833841629336 -0.041366082131301274
0001b0 1a e5 94 59 2e 8a a5 bf a2 01 73 5d be 61 cb bf
       -0.04206986278081555 -0.21392039835883475
0001c0 a2 01 73 5d be 61 cb bf 45 c3 d5 89 aa 36 a3 bf
       -0.21392039835883475 -0.03752644474560055
0001d0 ab 24 7f bd 5e bc af bf e7 19 96 74 3d d1 a3 bf
       -0.06198402465049332 -0.038705749971132346
0001e0 3a 71 72 ab 13 1b a6 bf 19 2d 7c 78 91 f2 a4 bf
       -0.04317532985553148 -0.040913148839616116
0001f0 ca 8b 3c 09 b0 81 a7 bf c8 9a 79 81 16 2a a9 bf
       -0.04591131317854254 -0.04914923029428092
000200 ed 6f b9 a9 f0 9b b5 bf b4 bd 63 f4 6e c3 a4 bf
       -0.08441070693646653 -0.04055353863975189
000210 b5 07 5d 90 83 2c a7 bf 56 1f 07 fc 47 e0 b1 bf
       -0.045261489269719325 -0.06982850935957904
000220 87 ff 6f 72 e3 a1 ce bf d7 c0 07 98 dd ab ca bf
       -0.23931544387596324 -0.20836992190698453
000230 7f 74 79 7c fb d3 b3 bf 51 82 98 f1 2d d4 b4 bf
       -0.07745334423948867 -0.08136260174115618
000240 8f 6b 38 b9 02 70 a2 bf 9a e3 74 08 0e e8 be bf
       -0.03601082335463623 -0.120728375496482
000250 1c 58 21 74 d4 ba b0 bf 15 af 64 ba 34 10 ab bf
       -0.0653507979889984 -0.05285801673229976
000260 6a a9 04 01 5a 86 b6 bf c6 2c 1f 21 de d2 a7 bf
       -0.08798754238947529 -0.04653066782301489
000270 32 20 c7 1c 56 78 a8 bf 38 b2 23 75 85 68 a6 bf
       -0.047793093693656266 -0.043766184376952955
000280 36 63 3c 67 04 eb b7 bf 95 3e c8 d3 cc 44 a7 bf
       -0.09342982788474505 -0.045446778156585634
000290 53 f1 92 11 8f 11 a6 bf f7 0c e8 5c 0b 21 b0 bf
       -0.04310271348501495 -0.06300421732162308
0002a0 c8 9b a9 36 48 04 a7 bf d1 50 e3 35 98 2b b4 bf
       -0.04495454470889332 -0.07879020038245989
0002b0 7b 60 3a 48 8b 07 ae bf a3 a0 a1 a5 b2 ac a7 bf
       -0.05865130669298054 -0.04623945495478778
0002c0 86 a5 e7 a5 db d7 a7 bf 86 a5 e7 a5 db d7 a7 bf
       -0.04656874084669042 -0.04656874084669042
0002d0 c7 d3 c4 77 3f 25 b8 bf 7d 11 79 2a 5a 15 a3 bf
       -0.09431835817379329 -0.037272279438670154
0002e0 1d a8 9a 07 d7 d2 af bf b6 3a 72 4a 47 da a2 bf
       -0.06215545623611283 -0.03682158263938133
0002f0 88 98 a1 bf c3 97 a9 bf 2c dc e4 03 02 65 a6 bf
       -0.04998599733589609 -0.04373937890562049
000300 d5 6a 52 85 51 c3 b8 bf 7e 20 c1 a2 56 c3 a4 bf
       -0.09673032288484802 -0.040552813880425184
000310 a4 f4 41 9c f1 ee b5 bf 73 8d 3c 26 4b 5e b8 bf
       -0.08567724289783257 -0.09518880542286982
000320 86 d5 a5 e7 71 a4 ba bf c6 0a 48 c1 d8 79 b7 bf
       -0.10407173066581352 -0.0917029830816701
000330 d4 05 77 5a ac 69 c0 bf ce ec 4a 4f e6 c9 a3 bf
       -0.12822489182694474 -0.0386497470658128
000340 05 98 2d f9 ff ce a7 bf a2 52 06 1b ef 3c a2 bf
       -0.04650115887379517 -0.03562113957301462
000350 38 c2 b6 4c 3e 13 b2 bf 4c 6f 1d 4e e4 da b4 bf
       -0.07060613034151053 -0.08146502406219475
000360 b2 9e 5a b2 b8 e5 a4 bf 0c ed 03 11 7d 75 a6 bf
       -0.04081513573811203 -0.043865116431300505
000370 4c 13 f1 29 3c 1e b2 bf 11 35 58 01 56 bb a6 bf
       -0.07077384971587469 -0.044398009933596445
000380 53 66 e9 f2 98 27 ae bf 30 39 14 cb ce 65 a6 bf
       -0.05889585461836746 -0.04374548176757498
000390 50 af 58 ee 64 27 ac bf d4 93 8a 13 ab 6e bd bf
       -0.0549880543661333 -0.11496991374094928
0003a0 a7 eb c9 9f 5a cc a3 bf ab c7 b1 26 97 e3 be bf
       -0.03866847229524888 -0.12066025442780297
0003b0 47 48 7a 8c 74 91 a5 bf b6 d5 3d 31 6a 9a b8 bf
       -0.042125360630180846 -0.09610618307291116
0003c0 bb c1 db 06 06 02 a6 bf e5 a1 fa 49 d4 da a7 bf
       -0.04298418840142256 -0.046591409712451605
0003d0 f4 db 6b 46 34 6c a6 bf 53 f1 92 11 8f 11 a6 bf
       -0.04379428252826037 -0.04310271348501495
0003e0 81 b5 4a 15 68 9a a7 bf 86 08 6f b3 7b 2b a4 bf
       -0.0460999036780363 -0.03939425053933214
0003f0 f4 d0 f0 ca 4c 59 fa 3f fa b4 fc 01 a6 53 ef 3f
       1.6468017508860244 0.9789609946070919
000400 63 4c 2a e7 f6 d6 f0 3f 01 48 1b 73 d8 ac ef bf
       1.0524815587894174 -0.9898493049788614
000410 2a 89 06 85 2a c9 de bf 72 78 c4 8d 49 12 fe 3f
       -0.4810282038762518 1.8794646776000516
000420 03 7f bd ca bc 51 f5 3f fa b4 fc 01 a6 53 ef 3f
       1.3324554366626564 0.9789609946070919
000430 03 7f bd ca bc 51 f5 3f fa b4 fc 01 a6 53 ef 3f
       1.3324554366626564 0.9789609946070919
000440 fa b4 fc 01 a6 53 ef 3f 2a 89 06 85 2a c9 de bf
       0.9789609946070919 -0.4810282038762518
000450 2a 89 06 85 2a c9 de bf 63 4c 2a e7 f6 d6 f0 3f
       -0.4810282038762518 1.0524815587894174
000460 63 4c 2a e7 f6 d6 f0 3f 9e 21 dc c4 fc 9d dd bf
       1.0524815587894174 -0.4627677843532413
000470 03 94 69 29 11 05 c8 bf c5 b8 5f 60 31 9c c5 bf
       -0.18765463373270572 -0.16882912832028843
000480 b1 f3 d1 07 3a f6 cd bf 63 4c 2a e7 f6 d6 f0 3f
       -0.23407674199907327 1.0524815587894174
000490 63 4c 2a e7 f6 d6 f0 3f e2 e6 cd e1 21 e5 ed bf
       1.0524815587894174 -0.9342202577820127
0004a0 07 8b 82 ef f2 e1 e5 bf 03 7f bd ca bc 51 f5 3f
       -0.6838316610268017 1.3324554366626564
0004b0 03 7f bd ca bc 51 f5 3f 03 7f bd ca bc 51 f5 3f
       1.3324554366626564 1.3324554366626564
0004c0 03 7f bd ca bc 51 f5 3f 71 61 de 82 a6 ac de bf
       1.3324554366626564 -0.4792877462400816
0004d0 71 61 de 82 a6 ac de bf 2a 89 06 85 2a c9 de bf
       -0.4792877462400816 -0.4810282038762518
0004e0 cc 03 27 2d 3a 42 e8 bf 04 1e f3 90 96 d4 c7 bf
       -0.7580843812830778 -0.1861751754533857
0004f0 85 6c 9a 6b 9f 92 ca bf 1a 42 df c2 5f cb ce bf
       -0.20759957078994176 -0.24058148398627638
000500 9e 21 dc c4 fc 9d dd bf c0 8c 80 1a c6 ea dc bf
       -0.4627677843532413 -0.4518294581232105
000510 9e 21 dc c4 fc 9d dd bf 9e 21 dc c4 fc 9d dd bf
       -0.4627677843532413 -0.4627677843532413
000520 d0 ff 68 42 38 8f f1 bf 23 a6 a3 93 49 9c a3 bf
       -1.097465762533819 -0.03830175330388055
000530 45 c3 d5 89 aa 36 a3 bf a2 52 06 1b ef 3c a2 bf
       -0.03752644474560055 -0.03562113957301462
000540 c0 8c 80 1a c6 ea dc bf 03 7f bd ca bc 51 f5 3f
       -0.4518294581232105 1.3324554366626564
000550 9d b0 97 54 91 4a e2 3f 8c c2 5c 74 15 5b d7 3f
       0.5716025020788212 0.3649343143797885
000560 ba 77 9d 03 77 46 e8 3f 71 17 79 f0 9c 54 db bf
       0.7586016722304898 -0.4270393703812863
000570 71 17 79 f0 9c 54 db bf ab c1 a3 0a 12 c8 dc bf
       -0.4270393703812863 -0.4497113326933923
000580 ab c1 a3 0a 12 c8 dc bf 2e 2b 66 64 b6 07 f2 bf
       -0.4497113326933923 -1.1268829271163656
000590 ab c1 a3 0a 12 c8 dc bf 07 8b 82 ef f2 e1 e5 bf
       -0.4497113326933923 -0.6838316610268017
0005a0 07 8b 82 ef f2 e1 e5 bf be a2 4b 65 cf b1 ee bf
       -0.6838316610268017 -0.9592053392817304
0005b0 2a 89 06 85 2a c9 de bf f3 64 fb 68 98 00 df bf
       -0.4810282038762518 -0.48441133739613845
0005c0 fa b4 fc 01 a6 53 ef 3f fa b4 fc 01 a6 53 ef 3f
       0.9789609946070919 0.9789609946070919
0005d0 fa 20 e3 a5 63 9d ed bf ab c1 a3 0a 12 c8 dc bf
       -0.9254625549301914 -0.4497113326933923
0005e0 07 8b 82 ef f2 e1 e5 bf 63 4c 2a e7 f6 d6 f0 3f
       -0.6838316610268017 1.0524815587894174
0005f0 63 4c 2a e7 f6 d6 f0 3f 9e 21 dc c4 fc 9d dd bf
       1.0524815587894174 -0.4627677843532413
000600 9e 21 dc c4 fc 9d dd bf fa b4 fc 01 a6 53 ef 3f
       -0.4627677843532413 0.9789609946070919
000610 fa b4 fc 01 a6 53 ef 3f e0 53 60 bd 2b a2 ef bf
       0.9789609946070919 -0.9885462473636117
000620 63 4c 2a e7 f6 d6 f0 3f 63 4c 2a e7 f6 d6 f0 3f
       1.0524815587894174 1.0524815587894174
000630 52 e0 e6 ed 7e 57 e0 3f 9e 21 dc c4 fc 9d dd bf
       0.5106806417961798 -0.4627677843532413
000640 63 4c 2a e7 f6 d6 f0 3f b5 fa 59 6f 87 08 c5 3f
       1.0524815587894174 0.16432278573116368
000650 14 0a a4 00 fb 1b c8 3f 0c 44 b4 f1 ef 7c 90 3f
       0.18835389643943812 0.01610159790749681
000660 a6 04 f4 70 65 4c 94 3f fe 44 22 f7 54 a9 e8 bf
       0.019822678584209406 -0.7706703974564844
000670 63 4c 2a e7 f6 d6 f0 3f 63 4c 2a e7 f6 d6 f0 3f
       1.0524815587894174 1.0524815587894174
000680 71 61 de 82 a6 ac de bf 63 4c 2a e7 f6 d6 f0 3f
       -0.4792877462400816 1.0524815587894174
000690 fa b4 fc 01 a6 53 ff 3f fa b4 fc 01 a6 53 ef 3f
       1.9579219892141837 0.9789609946070919
0006a0 be f8 94 a2 4b e8 e7 bf c0 8c 80 1a c6 ea dc bf
       -0.7471063781192908 -0.4518294581232105
0006b0 f3 64 fb 68 98 00 df bf f3 64 fb 68 98 00 df bf
       -0.48441133739613845 -0.48441133739613845
0006c0 71 17 79 f0 9c 54 db bf 71 17 79 f0 9c 54 db bf
       -0.4270393703812863 -0.4270393703812863
0006d0 6b 6a 2c 02 4c d8 ee bf fe 44 22 f7 54 a9 e8 bf
       -0.9639034311724805 -0.7706703974564844
0006e0 f3 64 fb 68 98 00 df bf f3 64 fb 68 98 00 df bf
       -0.48441133739613845 -0.48441133739613845
0006f0 fe 44 22 f7 54 a9 e8 bf fe 44 22 f7 54 a9 e8 bf
       -0.7706703974564844 -0.7706703974564844
000700 f3 64 fb 68 98 00 df bf 03 7f bd ca bc 51 f5 3f
       -0.48441133739613845 1.3324554366626564
000710 03 7f bd ca bc 51 f5 3f 71 17 79 f0 9c 54 db bf
       1.3324554366626564 -0.4270393703812863
000720 71 17 79 f0 9c 54 db bf f4 d0 f0 ca 4c 59 fa 3f
       -0.4270393703812863 1.6468017508860244
000730 fa b4 fc 01 a6 53 ef 3f 63 4c 2a e7 f6 d6 f0 3f
       0.9789609946070919 1.0524815587894174
000740 2a 89 06 85 2a c9 de bf 2a 89 06 85 2a c9 de bf
       -0.4810282038762518 -0.4810282038762518
000750 09 e6 75 46 71 7d e6 bf c0 8c 80 1a c6 ea dc bf
       -0.7028128029043624 -0.4518294581232105
000760 71 61 de 82 a6 ac de bf 71 61 de 82 a6 ac de bf
       -0.4792877462400816 -0.4792877462400816
000770 71 61 de 82 a6 ac de bf 71 61 de 82 a6 ac de bf
       -0.4792877462400816 -0.4792877462400816
000780 c0 8c 80 1a c6 ea dc bf 2c ed fe b0 df 36 c6 bf
       -0.4518294581232105 -0.1735496153104149
000790 a2 01 73 5d be 61 cb bf d7 c0 07 98 dd ab ca bf
       -0.21392039835883475 -0.20836992190698453
0007a0 71 17 79 f0 9c 54 db bf 71 17 79 f0 9c 54 db bf
       -0.4270393703812863 -0.4270393703812863
0007b0 71 17 79 f0 9c 54 db bf 71 17 79 f0 9c 54 db bf
       -0.4270393703812863 -0.4270393703812863
0007c0 3a c8 2a f0 5d 3d db 3f c5 4a a7 dc 66 04 dc 3f
       0.42562054113216485 0.4377686648196398
0007d0 97 40 6e aa c0 1f b6 bf f7 05 df 7d 7b c6 df 3f
       -0.08642200623421768 0.49648940364940536
0007e0 77 b1 1f e8 4d db e1 3f a6 e4 9c be c9 5e dd 3f
       0.5580205472629548 0.4589104043439626
0007f0 77 b1 1f e8 4d db e1 3f e3 bd 34 02 32 6e a9 bf
       0.5580205472629548 -0.0496688487713717
